{"config": [{"config": {"use_bias": true, "bias_constraint": null, "activation": "tanh", "trainable": true, "activity_regularizer": null, "kernel_regularizer": null, "name": "dense_1", "dtype": "float32", "batch_input_shape": [null, 13], "bias_regularizer": null, "units": 18, "kernel_constraint": null, "kernel_initializer": {"config": {"scale": 1.0, "distribution": "uniform", "mode": "fan_avg", "seed": null}, "class_name": "VarianceScaling"}, "bias_initializer": {"config": {}, "class_name": "Zeros"}}, "class_name": "Dense"}, {"config": {"use_bias": true, "bias_constraint": null, "activation": "relu", "trainable": true, "activity_regularizer": null, "kernel_regularizer": null, "name": "dense_2", "kernel_initializer": {"config": {"scale": 1.0, "distribution": "uniform", "mode": "fan_avg", "seed": null}, "class_name": "VarianceScaling"}, "units": 20, "kernel_constraint": null, "bias_regularizer": null, "bias_initializer": {"config": {}, "class_name": "Zeros"}}, "class_name": "Dense"}, {"config": {"use_bias": true, "bias_constraint": null, "activation": "relu", "trainable": true, "activity_regularizer": null, "kernel_regularizer": null, "name": "dense_3", "kernel_initializer": {"config": {"scale": 1.0, "distribution": "uniform", "mode": "fan_avg", "seed": null}, "class_name": "VarianceScaling"}, "units": 8, "kernel_constraint": null, "bias_regularizer": null, "bias_initializer": {"config": {}, "class_name": "Zeros"}}, "class_name": "Dense"}, {"config": {"use_bias": true, "bias_constraint": null, "activation": "sigmoid", "trainable": true, "activity_regularizer": null, "kernel_regularizer": null, "name": "dense_4", "kernel_initializer": {"config": {"scale": 1.0, "distribution": "uniform", "mode": "fan_avg", "seed": null}, "class_name": "VarianceScaling"}, "units": 5, "kernel_constraint": null, "bias_regularizer": null, "bias_initializer": {"config": {}, "class_name": "Zeros"}}, "class_name": "Dense"}], "keras_version": "2.1.5", "backend": "tensorflow", "class_name": "Sequential"}