{"keras_version": "2.1.3", "backend": "tensorflow", "config": [{"config": {"bias_initializer": {"config": {}, "class_name": "Zeros"}, "batch_input_shape": [null, 13], "trainable": true, "bias_regularizer": null, "kernel_regularizer": null, "dtype": "float32", "units": 12, "kernel_initializer": {"config": {"mode": "fan_avg", "scale": 1.0, "distribution": "uniform", "seed": null}, "class_name": "VarianceScaling"}, "activity_regularizer": null, "bias_constraint": null, "name": "dense_1", "kernel_constraint": null, "use_bias": true, "activation": "tanh"}, "class_name": "Dense"}, {"config": {"bias_initializer": {"config": {}, "class_name": "Zeros"}, "trainable": true, "bias_regularizer": null, "kernel_regularizer": null, "units": 12, "kernel_initializer": {"config": {"mode": "fan_avg", "scale": 1.0, "distribution": "uniform", "seed": null}, "class_name": "VarianceScaling"}, "activity_regularizer": null, "bias_constraint": null, "name": "dense_2", "kernel_constraint": null, "use_bias": true, "activation": "relu"}, "class_name": "Dense"}, {"config": {"bias_initializer": {"config": {}, "class_name": "Zeros"}, "trainable": true, "bias_regularizer": null, "kernel_regularizer": null, "units": 10, "kernel_initializer": {"config": {"mode": "fan_avg", "scale": 1.0, "distribution": "uniform", "seed": null}, "class_name": "VarianceScaling"}, "activity_regularizer": null, "bias_constraint": null, "name": "dense_3", "kernel_constraint": null, "use_bias": true, "activation": "relu"}, "class_name": "Dense"}, {"config": {"bias_initializer": {"config": {}, "class_name": "Zeros"}, "trainable": true, "bias_regularizer": null, "kernel_regularizer": null, "units": 5, "kernel_initializer": {"config": {"mode": "fan_avg", "scale": 1.0, "distribution": "uniform", "seed": null}, "class_name": "VarianceScaling"}, "activity_regularizer": null, "bias_constraint": null, "name": "dense_4", "kernel_constraint": null, "use_bias": true, "activation": "sigmoid"}, "class_name": "Dense"}], "class_name": "Sequential"}