{"class_name": "Sequential", "backend": "tensorflow", "keras_version": "2.1.5", "config": [{"class_name": "Dense", "config": {"trainable": true, "bias_regularizer": null, "use_bias": true, "bias_initializer": {"class_name": "Zeros", "config": {}}, "dtype": "float32", "batch_input_shape": [null, 13], "kernel_constraint": null, "kernel_initializer": {"class_name": "VarianceScaling", "config": {"distribution": "uniform", "seed": null, "mode": "fan_avg", "scale": 1.0}}, "units": 18, "bias_constraint": null, "name": "dense_1", "activity_regularizer": null, "activation": "tanh", "kernel_regularizer": null}}, {"class_name": "Dense", "config": {"trainable": true, "bias_regularizer": null, "use_bias": true, "bias_initializer": {"class_name": "Zeros", "config": {}}, "kernel_constraint": null, "kernel_initializer": {"class_name": "VarianceScaling", "config": {"distribution": "uniform", "seed": null, "mode": "fan_avg", "scale": 1.0}}, "units": 20, "bias_constraint": null, "name": "dense_2", "activity_regularizer": null, "activation": "relu", "kernel_regularizer": null}}, {"class_name": "Dense", "config": {"trainable": true, "bias_regularizer": null, "use_bias": true, "bias_initializer": {"class_name": "Zeros", "config": {}}, "kernel_constraint": null, "kernel_initializer": {"class_name": "VarianceScaling", "config": {"distribution": "uniform", "seed": null, "mode": "fan_avg", "scale": 1.0}}, "units": 8, "bias_constraint": null, "name": "dense_3", "activity_regularizer": null, "activation": "relu", "kernel_regularizer": null}}, {"class_name": "Dense", "config": {"trainable": true, "bias_regularizer": null, "use_bias": true, "bias_initializer": {"class_name": "Zeros", "config": {}}, "kernel_constraint": null, "kernel_initializer": {"class_name": "VarianceScaling", "config": {"distribution": "uniform", "seed": null, "mode": "fan_avg", "scale": 1.0}}, "units": 6, "bias_constraint": null, "name": "dense_4", "activity_regularizer": null, "activation": "sigmoid", "kernel_regularizer": null}}]}