{"keras_version": "2.1.5", "config": [{"config": {"dtype": "float32", "kernel_constraint": null, "trainable": true, "batch_input_shape": [null, 13], "kernel_initializer": {"config": {"scale": 1.0, "distribution": "uniform", "mode": "fan_avg", "seed": null}, "class_name": "VarianceScaling"}, "kernel_regularizer": null, "activity_regularizer": null, "use_bias": true, "bias_initializer": {"config": {}, "class_name": "Zeros"}, "activation": "tanh", "bias_regularizer": null, "bias_constraint": null, "units": 18, "name": "dense_1"}, "class_name": "Dense"}, {"config": {"kernel_constraint": null, "use_bias": true, "trainable": true, "kernel_initializer": {"config": {"scale": 1.0, "distribution": "uniform", "mode": "fan_avg", "seed": null}, "class_name": "VarianceScaling"}, "kernel_regularizer": null, "bias_regularizer": null, "bias_initializer": {"config": {}, "class_name": "Zeros"}, "activation": "relu", "activity_regularizer": null, "bias_constraint": null, "units": 20, "name": "dense_2"}, "class_name": "Dense"}, {"config": {"kernel_constraint": null, "use_bias": true, "trainable": true, "kernel_initializer": {"config": {"scale": 1.0, "distribution": "uniform", "mode": "fan_avg", "seed": null}, "class_name": "VarianceScaling"}, "kernel_regularizer": null, "bias_regularizer": null, "bias_initializer": {"config": {}, "class_name": "Zeros"}, "activation": "relu", "activity_regularizer": null, "bias_constraint": null, "units": 8, "name": "dense_3"}, "class_name": "Dense"}, {"config": {"kernel_constraint": null, "use_bias": true, "trainable": true, "kernel_initializer": {"config": {"scale": 1.0, "distribution": "uniform", "mode": "fan_avg", "seed": null}, "class_name": "VarianceScaling"}, "kernel_regularizer": null, "bias_regularizer": null, "bias_initializer": {"config": {}, "class_name": "Zeros"}, "activation": "sigmoid", "activity_regularizer": null, "bias_constraint": null, "units": 2, "name": "dense_4"}, "class_name": "Dense"}], "class_name": "Sequential", "backend": "tensorflow"}